timeseries_regression/experiment/lstm_model/best_lstm_model.pt (torch, 306131 bytes, 9 tensors)

weight_ih_l0 f4 [512, 9]
0.05077957 0.083579995 0.03530019 0.059941016 0.06357121 0.037664443 -0.06604634 0.018618593
0.09751853 -0.05426568 -0.031073708 -0.040014405 -0.0076903948 -0.055900365 -0.017503943 0.069799
-0.04698023 -0.04230702 -0.036234066 0.10845464 -0.042900175 0.043823395 0.020761603 -0.035100132
0.058435507 -0.032122545 0.12284591 0.012556405 0.07764646 0.05593765 -0.012770337 0.06094598
0.11039468 -0.021009576 0.09724411 -0.024740933 0.039340306 0.07075711 -0.043558948 0.04653709
-0.032928653 0.020459056 -0.03487233 0.0008270015 -0.06474086 -0.040724237 0.023075096 0.109955765
0.052717086 -0.010071652 -0.06658006 -0.075050935 0.09926162 0.082247324 0.038806695 0.039161768
0.042913422 -0.054266185 -0.006162201 0.0877468 0.03348987 0.07108768 0.02191567 -0.054248497
0.09738342 0.115369454 0.001352916 -0.020830587 0.038202297 -0.06868564 -0.04842303 -0.0068734926
0.012812027 0.021720266 -0.05941631 -0.0014033271 -0.06777739 -0.0014529997 -0.03920299 0.02338077
0.04454564 -0.006831093 0.03216228 0.016588574 0.07880286 0.09404886 -0.04721787 -0.019490559
-0.049522318 0.027791025 -0.033329982 -0.051278263 -0.012285565 -0.058019664 0.026689861 -0.09329912
0.03342963 -0.026315497 0.07900762 0.015725626 -0.0250166 0.065552115 0.061132416 0.039170057
-0.08650215 -0.06381794 0.03961808 -0.028410664 0.082408175 -0.02489035 0.085670345 -0.05514588
-0.08673129 0.05168093 0.08764079 0.047972567 0.047733586 -0.031395473 -0.005986785 0.032590836
0.06692875 0.06923569 -0.0016550797 0.008924059 -0.047027804 -0.07521661 0.09587536 0.08140327
0.0056205387 0.031493828 0.010284803 0.016005887 -0.058943007 -0.0066758613 0.111719616 0.057603657
-0.005979586 0.074457824 -0.0074100634 -0.044758372 0.05816168 0.061263874 0.050765716 0.028168827
-0.019751435 -0.0040717535 0.09726913 0.05803667 -0.009168431 0.013386031 0.096070655 0.058673263
-0.015753012 -0.050471112 0.058919713 0.08372694 -0.01817821 0.025651114 -0.02170215 -0.026267637
0.088560164 0.004817408 0.008044948 -0.01677869 -0.023685612 0.10605176 -0.044868752 -0.012714422
-0.036575086 0.047219247 0.1413303 0.04592301 -0.057591464 -0.046061218 0.05678917 -0.09128672
-0.043878697 0.08792188 0.061525967 0.0879567 0.004202793 0.08826139 0.07447949 0.08898939
-0.046230037 -0.017064504 0.089114666 -0.035598867 -0.031405475 0.06947183 0.0042972565 0.017998295
0.055979032 -0.08296786 0.05566363 -0.054593187 0.056272298 0.024886481 0.0095922975 -0.05801163
-0.0009616445 0.07183606 0.10719039 -0.004990259 -0.0302287 0.12996976 -0.053912662 -0.025533553
0.078425735 0.0034731182 -0.055454504 0.021794915 -0.028620562 0.088086694 0.027164936 0.0099458415
0.026237853 -0.05127138 0.04759532 -0.08322714 -0.09261903 0.0034937018 0.03685804 -0.09584821
-0.07376845 -0.0016949935 0.038046703 -0.026201246 -0.055137973 -0.02377552 -0.07706586 0.014016636
-0.03406766 -0.046118647 0.07090541 0.029953448 0.064086035 0.020596424 -0.021304408 -0.02097911
-0.069940925 -0.03908329 0.108050264 -0.016579343 0.078962184 -0.010504137 0.058910757 0.124674655
0.036269806 -0.016299456 0.07552492 -0.019049177 0.007825591 0.06988127 -0.02039402 0.038850017
00000000: 3dfe 4f3d fd2b ab3d ef96 103d b684 753d
00000010: 9f31 823d 0846 1a3d 4e43 87bd 0586 983c
00000020: ccb7 c73d b145 5ebd 4a8e febc 25e6 23bd
00000030: b5ff fbbb c8f7 64bd 6e64 8fbc c7f2 8e3d
00000040: 576e 40bd 204a 2dbd 2c6a 14bd 771d de3d
00000050: 18b8 2fbd 2980 333d 3d14 aa3c 28c5 0fbd
00000060: 125a 6f3d ee92 03bd a396 fb3d 61b9 4d3c
00000070: 1b05 9f3d e11e 653d ad3a 51bc 7ea2 793d
00000080: 9b16 e23d 461c acbc ec27 c73d 7fad cabc
00000090: 4d23 213d 1be9 903d de6a 32bd ad9d 3e3d
000000a0: 32e0 06bd c099 a73c 4ad6 0ebd 22cb 583a
000000b0: db96 84bd 75ce 26bd fc07 bd3c 7d30 e13d
000000c0: dfed 573d 9203 25bc 205b 88bd 4eb4 99bd
000000d0: ad49 cb3d 4971 a83d c5f3 1e3d 1768 203d
000000e0: fcc5 2f3d 3846 5ebd 4aec c9bb 98b4 b33d
000000f0: ad2c 093d 6b96 913d 7e88 b33c ac33 5ebd
00000100: f570 c73d d246 ec3d 5454 b13a e8a4 aabc
00000110: 037a 1c3d 0fab 8cbd 3a57 46bd 093b e1bb
00000120: 89e9 513c b3ee b13c 845e 73bd d8ef b7ba
00000130: dfce 8abd 9472 beba 5093 20bd 0789 bf3c
00000140: 7d75 363d 5dd7 dfbb 98bc 033d c3e4 873c
00000150: 6563 a13d b09c c03d 8667 41bd aaaa 9fbc
00000160: ead7 4abd 01aa e33c 0585 08bd 2809 52bd
00000170: 6549 49bc 07a6 6dbd b2a4 da3c 9c13 bfbd
00000180: 82ed 083d 9993 d7bc bfce a13d 07d3 803c
00000190: 9def ccbc 3040 863d fc65 7a3d c870 203d
000001a0: 0a28 b1bd fbb2 82bd 9146 223d 7bbd e8bc
000001b0: 9ec5 a83d d9e6 cbbc ef73 af3d a5e0 61bd
000001c0: 2da0 b1bd 62af 533d 047d b33d e27e 443d
000001d0: 4b84 433d 8a98 00bd cb2c c4bb f87d 053d
000001e0: f111 893d 71cb 8d3d 42ef d8ba 3736 123c
000001f0: 3aa0 40bd 2b0b 9abd 4d5a c43d c2b6 a63d
00000200: 7f2c b83b acff 003d 9781 283c c71e 833c
00000210: 396e 71bd 2fc1 dabb 41cd e43d d0f1 6b3d
00000220: 67f0 c3bb 587d 983d 1ed0 f2bb 8e54 37bd
00000230: f13a 6e3d d4ef 7a3d b6ef 4f3d 50c2 e63c
00000240: c3cd a1bc 586c 85bb 0a35 c73d dcb7 6d3d
00000250: 3037 16bc 1551 5b3c b1c0 c43d 6053 703d
00000260: 760c 81bc ccba 4ebd cc55 713d 0879 ab3d
00000270: 78ea 94bc 4922 d23c b5c8 b1bc 3a2f d7bc
00000280: 085f b53d 59db 9d3b f5ce 033c 7773 89bc
00000290: 5408 c2bc aa31 d93d 4cc8 37bd 2750 50bc
000002a0: c2cf 15bd f868 413d e4b8 103e c419 3c3d
000002b0: 07e5 6bbd b0aa 3cbd c39b 683d 88f4 babd
000002c0: 26ba 33bd 6310 b43d a702 7c3d a422 b43d
000002d0: 95b7 893b 63c2 b43d b488 983d 1240 b63d
000002e0: b55b 3dbd dcca 8bbc c081 b63d 1ed0 11bd
000002f0: 07a3 00bd 3f47 8e3d 00d0 8c3b 2971 933c
00000300: 454a 653d 0eeb a9bd 8cff 633d 1b9d 5fbd
00000310: c87d 663d bcde cb3c 0329 1d3c 9a9d 6dbd
00000320: df16 7cba c91e 933d a386 db3d 5485 a3bb
00000330: 2ea2 f7bc cb16 053e 86d3 5cbd be2b d1bc
00000340: ac9d a03d 419d 633b 4324 63bd 408b b23c
00000350: ab75 eabc cc66 b43d 0089 de3c e2f3 223c
00000360: c4f0 d63c f001 52bd 4ff3 423d fe72 aabd
00000370: 0caf bdbd 97f6 643b 75f8 163d 114c c4bd
00000380: ea13 97bd 8b2a deba dcd6 1b3d ffa3 d6bc
00000390: 5bd8 61bd e1c4 c2bc b5d4 9dbd 08a6 653c
000003a0: 888a 0bbd e8e6 3cbd db36 913d ef60 f53c
000003b0: 8a3f 833d d5b9 a83c 9586 aebc 62dc abbc
000003c0: 303d 8fbd cd15 20bd 7549 dd3d 67d1 87bc
000003d0: edb6 a13d 8b19 2cbc 684c 713d 6d55 ff3d
000003e0: a68f 143d 7086 85bc cfac 9a3d 050d 9cbc
000003f0: e836 003c e91d 8f3d 5c11 a7bc 3221 1f3d

weight_hh_l0 f4 [512, 128]
0.02459883 -0.011423333 0.051988218 0.0185899 0.04190581 0.039579544 0.025613848 0.0052340925
-0.01461865 0.0056553185 -0.051790506 -0.008575565 -0.025082301 0.008030318 0.0087954635 -0.06295576
-0.05550489 0.024833668 -0.012333621 -0.03968184 0.047630135 -0.00542051 0.003943474 0.009612714
0.0073293 -0.0016615492 -0.008946659 0.007863416 0.027830973 -0.013920309 0.016817193 -0.008001166
-0.030580644 0.05127233 -0.03412828 -0.013198711 -0.04513365 -0.046682227 0.038663924 -0.01888163
0.06032379 0.016238406 -0.058170687 0.05933042 -0.06837231 -0.0075625614 0.014227696 -0.03000916
0.049869716 -0.018657401 0.008943718 0.06908288 -0.07359557 0.045109697 -0.05768005 0.0032489232
0.054623198 0.07145847 0.058555927 0.04143254 0.051130574 -0.008908739 -0.010463136 0.06667756
-0.016297145 -0.032672033 -0.027558217 0.06329678 0.018532861 -0.03609268 0.044920113 0.003944016
0.0308291 -0.044799395 -0.00027207224 -0.035849534 0.010080826 -0.01663894 -0.031921633 0.055406466
-0.002089609 -0.029269144 -0.051238563 -0.0600688 0.00668746 -0.020637771 -0.058089916 -0.016061777
-0.02488529 0.026354821 0.0239901 -0.058314554 0.020173667 -0.014811026 -0.069957964 0.0068920124
-0.004925763 0.05758293 -0.027172636 -0.028910497 -0.0328572 -0.0007869258 0.022831403 0.0050797444
-0.06435658 0.0048769154 0.016465625 -0.0016550841 0.057369202 0.016519135 -0.0076455055 -0.0043447684
0.041138954 0.04333826 -0.061386652 0.01918392 0.03709242 0.0438119 -0.0070758034 -0.01404772
-0.03862495 0.0148139 0.07481578 0.041160453 0.05553926 -0.03602454 0.04396568 -0.056305114
0.0023485618 -0.028710984 -0.007368028 0.019911023 -0.042562693 -0.033629823 0.0011452851 0.02070533
-0.021888137 0.046508078 -0.02246052 -0.027512923 0.009692048 0.011948295 -0.052545324 -0.054908253
-0.024087932 0.020160062 -0.051868133 -0.059603143 0.035912365 0.012435446 -0.0044204183 0.0075668595
0.0035024255 -0.004502613 0.03727265 -0.0044637406 0.04976551 0.018051563 0.04935075 -0.03264862
0.015732512 0.039927706 0.007847201 -0.030299738 0.018542271 -0.0066619436 0.03929461 0.02951858
0.06967176 0.027245253 0.028204467 0.055376828 0.023009622 0.034507897 0.004734661 -0.013592644
0.023462148 0.0035787225 -0.0058896467 -0.02194194 -0.018840378 -0.06092257 -0.029994158 0.0045262957
-0.030195925 0.028619593 -0.05178464 -0.040510327 0.023415282 0.05866876 0.031432968 -0.033637643
0.061888576 0.035457876 -0.021167496 -0.0025939515 -0.0036116801 -0.04448323 -0.032522753 0.003025588
-0.010012474 0.042664755 0.026208134 -0.020869236 -0.002057238 -0.0041632233 0.043064173 0.041193806
0.020816758 -0.046327487 -0.048917063 -0.017032126 -0.05442307 -0.005374918 -0.0029207808 0.04373378
-0.028235583 0.045325156 0.008049826 0.03726537 -0.00062957127 0.04219021 0.05136813 -0.02815508
0.011392666 0.04980535 0.052943848 0.019111173 0.038383678 0.0030604082 -0.029151626 0.032563735
-0.009351728 -0.017225409 -0.02441306 0.043992545 0.0041784146 0.026195146 0.019226914 -0.0693042
0.02175911 -0.05114042 0.014547355 -0.0067267795 -0.016327634 -0.03160406 -0.00419425 0.01130582
-0.029633341 -0.021940473 0.04062438 -0.03585778 0.0613657 -0.03161208 0.03189268 -0.02762516
00000000: 7c83 c93c ee28 3bbc 99f1 543d d949 983c
00000010: 6da5 2b3d 291e 223d 22d4 d13c c082 ab3b
00000020: 1083 6fbc 4050 b93b 4822 54bd 8780 0cbc
00000030: 6679 cdbc 9891 033c d91a 103c f3ee 80bd
00000040: 1859 63bd fa6f cb3c f512 4abc 6d89 22bd
00000050: d117 433d 899e b1bb 4238 813b a57e 1d3c
00000060: a02a f03b 57c8 d9ba 0295 12bc 8fd5 003c
00000070: c8fd e33c 0212 64bc 36c4 893c 5317 03bc
00000080: 4284 fabc ef02 523d 18ca 0bbd 683f 58bc
00000090: 10de 38bd dd35 3fbd 105e 1e3d a6ad 9abc
000000a0: 1416 773d 6806 853c 6344 6ebd 7404 733d
000000b0: c806 8cbd 5dcf f7bb 481b 693c c5d5 f5bc
000000c0: 3044 4c3d 68d7 98bc ac88 123c 537b 8d3d
000000d0: 46b9 96bd f2c4 383d eb41 6cbd e3eb 543b
000000e0: 93bc 5f3d d158 923d 57d8 6f3d 2bb5 293d
000000f0: 4b6e 513d f6f5 11bc 936d 2bbc 3f8e 883d
00000100: 9781 85bc 1cd3 05bd c5c1 e1bc bea1 813d
00000110: 3ad2 973c ebd5 13bd 27fe 373d ce3c 813b
00000120: 4f8d fc3c 927f 37bd eba4 8eb9 f6d6 12bd
00000130: 0c2a 253c 634e 88bc 42c0 02bd e4f1 623d
00000140: d2f1 08bb d8c5 efbc 87df 51bd b40a 76bd
00000150: 7b22 db3b 8b10 a9bc b1ef 6dbd fd93 83bc
00000160: 3cdc cbbc 11e6 d73c e386 c43c 3edb 6ebd
00000170: 3f43 a53c f2a9 72bc 1f46 8fbd 64d6 e13b
00000180: 4b68 a1bb 14dc 6b3d 2699 debc b5d5 ecbc
00000190: 4595 06bd b249 4eba ec08 bb3c fc73 a63b
000001a0: 62cd 83bd 88ce 9f3b ebe2 863c 68ef d8ba
000001b0: f8fb 6a3d 2353 873c 2687 fabb 8f5e 8ebb
000001c0: 5281 283d 7683 313d 9270 7bbd 9927 9d3c
000001d0: 39ee 173d 1b74 333d 24dc e7bb 6828 66bc
000001e0: 3235 1ebd 00b6 723c 0439 993d dd97 283d
000001f0: 237d 633d 788e 13bd 5b15 343d 31a0 66bd
00000200: 54ea 193b 4c33 ebbc 806f f1bb 711c a33c
00000210: 3856 2ebd 6dbf 09bd 641d 963a 399e a93c
00000220: c04e b3bc 417f 3e3d 20ff b7bc c862 e1bc
00000230: 65cb 1e3c c8c2 433c c439 57bd 7ae7 60bd
00000240: 0e54 c5bc b726 a53c ae73 54bd 6d22 74bd
00000250: d818 133d 0abe 4b3c 28d9 90bb 6bf3 f73b
00000260: f388 653b a88a 93bb 35ab 183d 9244 92bb
00000270: ebd6 4b3d dfe0 933c 0324 4a3d 8fba 05bd
00000280: 78e1 803c 3c8b 233d 8c91 003c 2837 f8bc
00000290: f6e5 973c 6f4c dabb 63f3 203d f3d0 f13c
000002a0: 11b0 8e3d 7031 df3c 0e0d e73c d0d2 623d
000002b0: ad7e bc3c 2758 0d3d 3725 9b3b aeb3 5ebc
000002c0: b133 c03c 0089 6a3b f0fd c0bb 95bf b3bc
000002d0: 2357 9abc f289 79bd 4fb6 f5bc 5251 943b
000002e0: 725d f7bc a373 ea3c 211c 54bd 28ee 25bd
000002f0: 68d1 bf3c a74e 703d dbbf 003d a0c7 09bd
00000300: e07e 7d3d 473c 113d 7567 adbc 49ff 29bb
00000310: f0b1 6cbb 0c34 36bd 9436 05bd f248 463b
00000320: 5c0b 24bc 3dc1 2e3d 71b2 d63c f6f5 aabc
00000330: bad2 06bb a66b 88bb 0f64 303d d6ba 283d
00000340: e887 aa3c e4c1 3dbd 425d 48bd f586 8bbc
00000350: baea 5ebd 1520 b0bb 926a 3fbb 3122 333d
00000360: 4f4e e7bc dfa6 393d 6be3 033c 93a3 183d
00000370: d009 25ba a4cf 2c3d 6367 523d 7ba5 e6bc
00000380: 4ea8 3a3c b200 4c3d a6db 583d 098f 9c3c
00000390: 3438 1d3d 2191 483b 64cf eebc 8d61 053d
000003a0: fd37 19bc 4d1c 8dbc e6fd c7bc 8731 343d
000003b0: 15eb 883b 3497 d63c c381 9d3c 5cef 8dbd
000003c0: 2940 b23c 9e78 51bd 0758 6e3c 516c dcbb
000003d0: 88c1 85bc 4273 01bd eb6f 89bb 0c3c 393c
000003e0: 9fc1 f2bc 82bc b3bc c065 263d 9cdf 12bd
000003f0: 9a5a 7b3d ab7b 01bd e6a1 023d 294e e2bc

bias_ih_l0 f4 [512]
-0.005409247 0.0060174577 0.06975864 -0.06839179 0.013345009 0.028678916 -0.015693776 0.09066524
0.054244872 0.091880865 0.023550084 0.04828649 0.069137625 -0.04919975 -0.01405673 -0.058599174
-0.053278025 0.038245838 0.08913764 0.07806498 0.0037791794 -0.056601685 0.006752064 0.0050640474
0.0272366 0.061033376 0.06340384 0.06576826 0.010467562 0.00031713647 0.05781097 0.059796687
0.06055739 0.073865585 0.06426498 -0.01896226 -0.07488666 -0.016786845 0.054910287 0.04085593
0.008390922 -0.02604978 -0.018995471 0.09299613 0.06780888 -0.049745023 -0.007868133 0.06405069
0.09018925 -0.015687559 0.0977959 0.026802486 -0.002317266 0.010984517 0.07829755 -0.06272009
-0.08810299 0.030782932 -0.04418521 0.062163282 0.08809246 -0.006282885 0.08418229 -0.07591256
-0.08090941 0.050085876 0.00836194 0.01601633 -0.0076621035 -0.050754525 0.0029668708 0.044566825
0.082111105 0.018963628 -0.04543502 0.057354636 -0.078494035 0.009492078 -0.007317341 -0.026587127
-0.05079119 -0.017786305 -0.061001725 0.0015351995 0.07863275 0.009607695 -0.025820646 -0.016137738
0.079626344 0.08225787 0.096188165 -0.050903488 -0.032529645 0.119233236 0.00395695 -0.05753881
0.03817683 -0.04487721 -0.0017849746 0.0028860415 -0.015948622 0.055742584 -0.046426907 0.024347976
0.010195535 -0.08728786 -0.051912267 0.07824858 0.09117798 0.042910628 0.021189462 0.05448959
0.01179434 0.088719755 -0.034052 0.07259477 -0.060205944 -0.014954655 0.001504791 0.079578176
0.030788975 0.008284294 0.09472317 -0.008001278 -0.026549295 -0.064280905 0.062982425 -0.0019935826
0.0752075 -0.028237138 0.07400866 -0.02012002 0.062610105 0.030771686 0.072971076 -0.07513583
-0.025275499 -0.044834867 0.03068375 -0.021831913 -0.05552519 0.022303404 -0.043192435 -0.02791268
-0.054531578 -0.009978285 0.082103714 -0.028712891 -0.04477504 -0.049752817 0.10159377 -0.06316327
-0.046062768 -0.0504962 0.07563503 -0.0066506546 -0.0837835 -0.010771076 0.05181494 -0.076273605
-0.037702195 0.08231707 0.07499277 0.0072391075 -0.06843087 -0.084766805 -0.06186438 -0.009504878
-0.025667386 0.014607928 -0.037918158 -0.07307298 0.047188938 -0.04379308 0.025744446 0.029114708
0.053834025 -0.049793087 0.02372652 -0.018256105 0.053391717 0.036648013 0.034036625 -0.03895963
-0.0876295 0.045048695 0.022820022 0.045691818 0.0057553356 0.062248964 0.014518528 0.00018027257
-0.07876293 0.017182523 0.011265281 -0.022795135 0.05493486 -0.049877692 -0.006449775 0.090219356
0.093813546 -0.034348745 0.0047190664 -0.0077278293 0.013289253 0.0101143755 0.0715229 0.039815117
-0.03987968 -0.032260455 0.016583316 -0.0493393 0.06193698 0.011142748 0.055188097 -0.024679031
0.06441393 -0.048160993 -0.028253008 -0.018234164 0.06693626 0.098871976 0.03848644 -0.063671686
0.049591865 0.077206075 0.02018858 -0.041033126 -0.001008445 -0.070851676 -0.027973732 -0.061204683
-0.051982056 -0.055498578 0.011094007 0.06594698 0.06072747 -0.038132228 -0.06420684 0.026146375
0.002921444 -0.03892102 -0.06604873 0.038001515 0.040405605 0.115898006 -0.02146252 0.016397653
-0.042618055 0.0075617284 -0.05951038 0.05093536 0.04711144 -0.022946224 0.013739136 -0.037123747
00000000: 0d40 b1bb 182e c53b 9edd 8e3d ff10 8cbd
00000010: 06a5 5a3c 0cf0 ea3c 3c90 80bc b3ae b93d
00000020: df2f 5e3d 092c bc3d 1bec c03c 0ec8 453d
00000030: 0798 8d3d ad85 49bd 334e 66bc b005 70bd
00000040: 0f3a 5abd aba7 1c3d cc8d b63d 88e0 9f3d
00000050: 1cac 773b 2bd7 67bd 6b40 dd3b 4ff0 a53b
00000060: 4a1f df3c 22fe 793d dfd9 813d 82b1 863d
00000070: 2380 2b3c 5645 a639 32cb 6c3d 5fed 743d
00000080: 070b 783d d746 973d 5c9d 833d be56 9bbc
00000090: 2d5e 99bd 9184 89bc 9ce9 603d 8c58 273d
000000a0: 147a 093c 5966 d5bc 649c 9bbc c174 be3d
000000b0: 62df 8a3d 70c1 4bbd 57e9 00bc 022d 833d
000000c0: 24b5 b83d 3283 80bc 3849 c83d e390 db3c
000000d0: 46dd 17bb 67f8 333c 775a a03d 6473 80bd
000000e0: 576f b4bd 7d2c fc3c 8dfb 34bd ed9e 7e3d
000000f0: d269 b43d a9e0 cdbb c467 ac3d 0b78 9bbd
00000100: d5b3 a5bd d926 4d3d 8500 093c ae34 833c
00000110: 6212 fbbb fae3 4fbd d56f 423b b48b 363d
00000120: de29 a83d 9c59 9b3c 121a 3abd b2ec 6a3d
00000130: 7bc1 a0bd a984 1b3c 4ec6 efbb 3fcd d9bc
00000140: 6c0a 50bd 96b4 91bc f2dc 79bd bf38 c93a
00000150: 350a a13d 9869 1d3c d285 d3bc 4a33 84bc
00000160: 2313 a33d d076 a83d 4dfe c43d 2d80 50bd
00000170: ce3d 05bd 8e30 f43d 4da9 813b d1ad 6bbd
00000180: 4f5f 1c3d 2ad1 37bd cff5 e9ba be23 3d3b
00000190: afa6 82bc 5652 643d 242a 3ebd 6875 c73c
000001a0: 2c0b 273c fac3 b2bd f5a1 54bd cb40 a03d
000001b0: 85bb ba3d 0ec3 2f3d 8695 ad3c 7a30 5f3d
000001c0: 0c3d 413c b4b2 b53d 1c7a 0bbd 91ac 943d
000001d0: 829a 76bd 5f04 75bc 683c c53a e2f9 a23d
000001e0: 2939 fc3c d9ba 073c 39fe c13d cb17 03bc
000001f0: e87d d9bc b5a5 83bd eefc 803d c4a6 02bb
00000200: 6406 9a3d 9251 e7bc da91 973d bdd2 a4bc
00000210: ba39 803d e714 fc3c dc71 953d d0e0 99bd
00000220: 900e cfbc c4a4 37bd 7d5c fb3c d7d8 b2bc
00000230: 626e 63bd a1b5 b63c 8dea 30bd 22a9 e4bc
00000240: 815c 5fbd f67b 23bc fe25 a83d 4c37 ebbc
00000250: 0866 37bd 9cc9 4bbd 6510 d03d bf5b 81bd
00000260: 50ac 3cbd 1ad5 4ebd 8ae6 9a3d bced d9bb
00000270: af96 abbd 2b79 30bc e73b 543d 5635 9cbd
00000280: 9e6d 1abd da95 a83d cf95 993d 0936 ed3b
00000290: 7c25 8cbd 389a adbd 8165 7dbd 59ba 1bbc
000002a0: 6944 d2bc 1756 6f3c 1250 1bbd 49a7 95bd
000002b0: 3049 413d 5f60 33bd 04e6 d23c f881 ee3c
000002c0: 1181 5c3d d6f3 4bbd 1e5e c23c d48d 95bc
000002d0: 46b1 5a3d 3a1c 163d fd69 0b3d 2294 1fbd
000002e0: 1877 b3bd fb84 383d 0ef1 ba3c 5827 3b3d
000002f0: 4197 bc3b c5f8 7e3d 1fdf 6d3c 8d07 3d39
00000300: 764e a1bd 5dc2 8c3c 0392 383c ddbc babc
00000310: 6003 613d 8d4c 4cbd a258 d3bb edc4 b83d
00000320: 5121 c03d 45b1 0cbd 66a2 9a3b bb39 fdbb
00000330: 2bbb 593c c4b6 253c 997a 923d 2d15 233d
00000340: e058 23bd 8a23 04bd bcd9 873c 0118 4abd
00000350: a1b1 7d3d 1390 363c ea0c 623d ae2b cabc
00000360: 73eb 833d 7644 45bd da72 e7bc d05f 95bc
00000370: e115 893d 647d ca3d f5a3 1d3d 4d66 82bd
00000380: d720 4b3d 381e 9e3d 8562 a53c 5a12 28bd
00000390: cd2d 84ba af1a 91bd 2b29 e5bc c3b1 7abd
000003a0: 23eb 54bd 7a52 63bd a3c3 353c 360f 873d
000003b0: 5ebd 783d 8a30 1cbd e07e 83bd ec30 d63c
000003c0: b275 3f3b a66b 1fbd 8e44 87bd 7aa7 1b3d
000003d0: 5980 253d ef5b ed3d 2bd2 afbc 5f54 863c
000003e0: 4590 2ebd 60c8 f73b 28c1 73bd 99a1 503d
000003f0: edf7 403d b8f9 bbbc 1d1a 613c 120f 18bd

bias_hh_l0 f4 [512]
-0.008103494 0.04585844 0.016000498 0.00937968 0.00580228 -0.047238924 0.040168077 0.01097387
-0.024734017 -0.03146798 0.027044525 0.009654355 0.046760764 -0.011630431 -0.029996287 -0.05788459
0.043079007 0.07157842 0.06879452 0.032580886 0.08029944 0.007940518 -0.03016157 0.083652176
7.0435126e-05 -0.032110963 0.044283785 -0.020504918 -0.010492853 -0.011066935 -0.0039083506 0.021936338
-0.0790166 0.000209037 0.05797853 0.08081044 -0.017163161 -0.0025445682 -0.022134544 -0.008946883
-0.06135342 0.037399948 -0.027043648 0.019975593 0.041328933 0.06988612 0.005118867 0.08456728
-0.00026666909 0.025059745 0.1357242 0.0029075562 0.052983694 0.0536947 0.06461038 -0.09870505
-0.013073071 0.056948233 -0.046738993 0.038762018 -0.059403453 0.037581075 -0.038670197 -0.07252245
0.036329184 0.049449254 -0.039306354 0.07861301 0.04333785 -0.08262486 -0.07968504 0.10793833
-0.03593466 -0.028259918 -0.06441541 0.056861997 -0.0370758 0.03980815 0.08849103 -0.065666035
0.004309613 -0.009198102 -0.03433066 0.0035112284 0.009455583 -0.021560302 0.053129233 0.08024289
0.023540221 0.096382365 -0.042448908 -0.03613377 0.03283556 -0.0040200944 -0.054901782 0.050232466
0.07801985 0.048652563 -0.017515874 0.04234097 -0.06948424 0.064442225 0.02150029 -0.0006545052
-0.028796025 -0.009381284 -0.020620646 0.0583799 0.02740168 -0.057607077 -0.058100495 -0.05981311
-0.019425299 0.07164254 -0.028280767 0.08420889 0.065533325 0.094077766 -0.025462175 0.05666699
-0.06962174 0.025956899 0.016293798 -0.061922703 0.022210676 0.009792915 -0.0643188 0.044362176
0.073808074 -0.03131006 -0.01985837 0.04526455 0.04687777 0.0041014045 0.08639935 -0.017668478
0.000275685 -0.06308761 0.064854726 0.03035301 0.05245658 -0.03749381 -0.06358456 0.07718383
-0.06448047 -0.027666504 0.025022373 -0.070753425 0.080944896 0.039302364 0.008191346 -0.07560736
-0.020905891 -0.019126251 0.013143992 0.041266643 0.030343132 -0.045332216 0.022058021 -0.01265951
-0.056891516 -0.06639908 0.046907876 -0.044486318 0.029998654 -0.0011845871 -0.059322547 -0.071480066
0.08175363 -0.013865342 -0.04134678 0.009300099 -0.0390461 -0.0674767 0.041929193 0.032423478
0.008484259 -0.046310954 0.0485463 0.006365055 0.06858578 -0.008070341 -0.047045413 -0.032836184
0.06361022 0.008960099 0.0687348 -0.073195554 0.067720264 -0.042494293 0.04763503 0.053933434
-0.08036007 -0.05304315 -0.041298106 0.017131701 0.08062674 -0.027346881 -0.08186101 0.0692805
0.075292975 0.04217617 -0.041054167 -0.06577387 -0.062485054 0.03168506 0.0073674642 0.0060992283
0.029564284 0.015770882 0.0030720464 0.07549257 -0.07311657 0.062297247 -0.0028623154 -0.018469948
-0.059162814 -0.0083651235 0.064441286 0.06975172 0.0038769138 0.066309445 0.061354876 -0.04315689
0.08102109 -0.05710818 -0.07084053 0.048907902 -0.04735242 -0.024724154 0.043439727 -0.025479233
0.025358422 -0.053814158 0.07135663 0.06714351 0.037725624 0.028924536 -0.038863163 0.066632554
-0.019607995 0.009016449 -0.048248738 0.05800516 0.06110957 0.004162838 0.04374603 -0.06439812
-0.090496555 0.11526838 -0.03874015 0.06968648 -0.017104795 0.057365082 0.034413204 -0.047329377
00000000: 84c4 04bc 0fd6 3b3d 7a13 833c 3bad 193c
00000010: 0d21 be3b 9a7d 41bd 4887 243d bfcb 333c
00000020: fe9e cabc 92e4 00bd 7b8c dd3c 4d2d 1e3c
00000030: 3788 3f3d 908d 3ebc c6ba f5bc 6418 6dbd
00000040: 9d73 303d b597 923d 24e4 8c3d 8973 053d
00000050: 0874 a43d f218 023c 6615 f7bc d551 ab3d
00000060: 92b6 9338 c986 03bd ea62 353d eef9 a7bc
00000070: 37ea 2bbc 1752 35bc 9f11 80bb d6b3 b33c
00000080: 75d3 a1bd f130 5b39 e57a 6d3d f27f a53d
00000090: c299 8cbc c5c2 26bb 8153 b5bc f295 12bc
000000a0: b94d 7bbd b030 193d a48a ddbc dba3 a33c
000000b0: 8748 293d 7420 8f3d 2bbc a73b 9c31 ad3d
000000c0: b8cf 8bb9 184a cd3c 49fb 0a3e b38c 3e3b
000000d0: 6e05 593d f9ee 5b3d 7252 843d e025 cabd
000000e0: 6f30 56bc 8d42 693d 6371 3fbd ecc4 1e3d
000000f0: 0951 73bd 9dee 193d a464 1ebd a686 94bd
00000100: e9cd 143d 4d8b 4a3d b3ff 20bd dcff a03d
00000110: 0883 313d 3937 a9bd e931 a3bd c50e dd3d
00000120: 3930 13bd 5881 e7bc 3aec 83bd 20e8 683d
00000130: cbdc 17bd df0d 233d c93a b53d ea7b 86bd
00000140: a737 8d3b a3b3 16bc 4e9e 0cbd a31c 663b
00000150: 97eb 1a3c 3b9f b0bc 0a9e 593d 6256 a43d
00000160: 6cd7 c03c 1e64 c53d e8de 2dbd 0101 14bd
00000170: 957e 063d ffba 83bb b1e0 60bd 8fc0 4d3d
00000180: dfc8 9f3d e947 473d 737d 8fbc ba6d 2d3d
00000190: c14d 8ebd 49fa 833d 6021 b03c 1a93 2bba
000001a0: a4e5 ebbc f5b3 19bc a1ec a8bc c31f 6f3d
000001b0: 7d79 e03c 66f5 6bbd c9fa 6dbd 97fe 74bd
000001c0: ce21 9fbc 53b9 923d 11ad e7bc b675 ac3d
000001d0: 5636 863d d8ab c03d 0d96 d0bc a51b 683d
000001e0: d895 8ebd 90a3 d43c 927a 853c a9a2 7dbd
000001f0: 2af3 b53c 7672 203c 93b9 83bd 1db5 353d
00000200: b028 973d fa3e 00bd 05ae a2bc 5267 393d
00000210: e802 403d 1365 863b 24f2 b03d 7cbd 90bc
00000220: d089 9039 1434 81bd 8ed2 843d e0a6 f83c
00000230: b6dc 563d 1c93 19bd 9f38 82bd 8e12 9e3d
00000240: 560e 84bd dda4 e2bc b8fb cc3c 2ce7 90bd
00000250: 70c6 a53d 84fb 203d ff34 063c 08d8 9abd
00000260: d542 abbc a8ae 9cbc e659 573c 3607 293d
00000270: 2992 f83c 46ae 39bd 06b3 b43c d569 4fbc
00000280: 1407 69bd 3efc 87bd 7922 403d 4937 36bd
00000290: bdbf f53c 2644 9bba 33fc 72bd 2464 92bd
000002a0: 726e a73d 762b 63bc 3e5b 29bd 715f 183c
000002b0: ceee 1fbd 3931 8abd f2bd 2b3d 7bce 043d
000002c0: 9001 0b3c 8eb0 3dbd 7cd8 463d f491 d03b
000002d0: b476 8c3d 7739 04bc b1b2 40bd 3c7f 06bd
000002e0: 1346 823d 61cd 123c d5c4 8c3d 8de7 95bd
000002f0: ecb0 8a3d 7f0e 2ebd f31c 433d 4ee9 5c3d
00000300: d293 a4bd c643 59bd 3428 29bd c857 8c3c
00000310: a21f a53d 9106 e0bc bfa6 a7bd efe2 8d3d
00000320: 3433 9a3d ebc0 2c3d 6a28 28bd 73b4 86bd
00000330: 54f0 7fbd 32c8 013d c56a f13b 09dc c73b
00000340: cc30 f23c f031 813c 6354 493b d99b 9a3d
00000350: 24be 95bd 662b 7f3d af95 3bbb 4a4e 97bc
00000360: b554 72bd df0d 09bc cbf9 833d fdd9 8e3d
00000370: d213 7e3b 3fcd 873d 404f 7b3d 47c5 30bd
00000380: 63ee a53d 44ea 69bd d714 91bd a753 483d
00000390: 9cf4 41bd 4f8a cabc dbed 313d d3b9 d0bc
000003a0: 77bc cf3c 3c6c 5cbd 6d23 923d 8982 893d
000003b0: 2f86 1a3d 26f3 ec3c fb2e 1fbd a676 883d
000003c0: f2a0 a0bc bab9 133c 78a0 45bd d296 6d3d
000003d0: 074e 7a3d 6b68 883b 0a2f 333d 29e3 83bd
000003e0: 4256 b9bd d411 ec3d fead 1ebd c9b7 8e3d
000003f0: 5b1f 8cbc a6f7 6a3d dcf4 0c3d 73dc 41bd

weight f4 [32, 128]
-0.076173425 -0.06943664 0.018702637 0.005461142 -0.036307544 -0.09610847 0.027734622 0.016130203
-0.06916653 -0.047527105 0.043725822 0.04423129 -0.03778811 0.045374565 0.014002957 -0.034255505
-0.022605967 -0.054980848 0.062696494 -0.010062991 -0.02634599 0.052902345 -0.0013776523 0.02566098
-0.008979328 -0.05775245 0.105013825 -0.022488324 -0.044024203 0.04823731 0.0056288326 0.009579018
0.060142014 0.077873275 0.06434404 -0.012597034 0.0025654025 0.031011712 -0.0042850906 0.0063049938
0.062774405 -0.073763624 0.022140155 -0.0034758009 0.047480755 0.09626688 -0.05697967 -0.010966398
0.0750251 0.08069223 -0.009182671 -0.0386338 -0.019947382 0.07413357 -0.08113139 -0.07089429
0.045880552 0.015058512 0.013121755 -0.051531296 0.04849137 0.011869616 0.0050274157 0.006946878
-0.039052937 0.015407104 0.0884629 0.07493878 -0.074649885 -0.052181102 0.067841455 -0.07260387
-0.047842648 0.039666943 0.056347135 0.03831161 -0.0684365 -0.012539968 -0.08847669 -0.08585725
0.050647754 -0.10926791 0.08455102 -0.033300087 0.016242128 -0.08841306 0.07186632 0.03257592
0.048961233 -0.08167717 -0.041458577 0.07548683 -0.011116109 0.028904323 -0.05233392 -0.083230175
0.05469002 -0.03457809 -0.055073004 -0.028078137 0.05275607 -0.06480382 -0.011311732 0.015671497
0.015194036 0.0044800146 -0.037639588 0.07397951 -0.025110401 -0.00068003766 0.03483252 0.06626972
-0.09259191 0.076541945 0.036950227 -0.13072988 -0.0231582 0.079152636 0.08227736 -0.09569703
0.010324465 -0.0075408756 -0.03924526 0.04934452 -0.056817852 0.010232378 0.053194746 0.026046677
0.10067112 -0.04306274 -0.07317392 0.057569426 -0.021204898 -0.058905326 0.09027588 0.023407418
-0.026558239 0.027222129 0.06531732 -0.028802633 0.066901416 -0.037653036 -0.0210461 0.069767885
0.029031413 -0.03506267 0.05595816 -0.064904846 0.0012162076 -0.07161258 0.041489813 0.07417386
-0.05443197 0.05586411 0.04806437 -0.01212751 0.089626215 0.003224007 0.046345767 0.061772536
-0.030581448 0.07939455 0.06661261 0.04384323 0.037944667 0.0065099527 0.04883668 -0.008236956
-0.044617224 0.010125569 -0.058465064 0.05900173 0.034650024 0.078650065 0.05272629 0.031881046
-0.018788094 0.070398666 -0.048915707 0.0042352118 -0.09712066 0.01934583 -0.025867958 -0.045044985
0.016323863 0.1161135 -0.033861242 0.027181782 0.032927014 -0.08301121 0.031325217 0.04532262
0.018885717 -0.09916919 0.025082808 0.07686134 -0.080249414 -0.041398834 -0.01030544 -0.04425837
0.03634553 0.034973804 -0.0014520141 -0.0072803423 -0.05441988 -0.0051171244 0.024113009 0.038945124
-0.04175403 -0.018832993 -0.001091146 -0.09313057 -0.05400853 -0.10024233 0.06792133 0.03458356
-0.066433415 -0.103220575 0.06423168 0.011947183 0.08157625 0.053260583 -0.013691379 -0.07592141
0.05639158 0.028016143 0.0040702443 -0.003970283 0.029538527 0.03537817 0.009703441 -0.09929834
-0.04056839 0.0672515 -0.029279158 0.07407455 0.10078799 -0.036374617 0.06374053 -0.017945852
-0.08609962 -0.045493346 -0.05124333 -0.01565571 -0.0649683 -0.049053393 0.06568301 0.02635758
0.043688398 0.028559957 0.07594298 0.09681547 -0.05198621 0.020374205 -0.05535618 0.08309179
00000000: d000 9cbd cc34 8ebd 4636 993c 61f3 b23b
00000010: 38b7 14bd 84d4 c4bd b833 e33c 7d23 843c
00000020: 2fa7 8dbd c8ab 42bd d919 333d df2b 353d
00000030: b5c7 1abd aeda 393d a96c 653c 804f 0cbd
00000040: 2630 b9bc 9933 61bd 0567 803d 3edf 24bc
00000050: 8cd3 d7bc 21b0 583d 5792 b4ba fa36 d23c
00000060: 081e 13bc d58d 6cbd 7d11 d73d 6f39 b8bc
00000070: b952 34bd 7c94 453d 1272 b83b 50f1 1c3c
00000080: 7957 763d 067c 9f3d cfc6 833d ca63 4ebc
00000090: 5020 283b 460c fe3c f269 8cbb 1f9a ce3b
000000a0: de8f 803d 6211 97bd 455f b53c 43ca 63bb
000000b0: 2e7b 423d 9227 c53d 8463 69bd 68ac 33bc
000000c0: c2a6 993d f841 a53d ea72 16bc 7a3e 1ebd
000000d0: b168 a3bc 57d3 973d 3728 a6bd 0731 91bd
000000e0: 3fed 3b3d fab7 763c a1fc 563c 7b12 53bd
000000f0: e39e 463d c778 423c 05bd a43b a3a2 e33b
00000100: f9f5 1fbd 146e 7c3c 092c b53d 8179 993d
00000110: 0ae2 98bd dabb 55bd 76f0 8a3d 56b1 94bd
00000120: a7f6 43bd ce79 223d 41cc 663d a3ec 1c3d
00000130: 7028 8cbd 7074 4dbc 4433 b5bd edd5 afbd
00000140: 0574 4f3d dbc7 dfbd 1629 ad3d ac65 08bd
00000150: 360e 853c e811 b5bd a62e 933d 546e 053d
00000160: 938b 483d 5c46 a7bd 78d0 29bd d798 9a3d
00000170: 5720 36bc c2c8 ec3c 185c 56bd 9574 aabd
00000180: a402 603d c1a1 0dbd 3b94 61bd 1f04 e6bc
00000190: c016 583d ddb7 84bd d854 39bc 8361 803c
000001a0: 68f0 783c 16cd 923b f82b 1abd 9282 973d
000001b0: 54b4 cdbc 8e44 32ba 8bac 0e3d 6bb8 873d
000001c0: d4a0 bdbd 06c2 9c3d 1f59 173d 0ede 05be
000001d0: 44b6 bdbc c71a a23d 0881 a83d cefc c3bd
000001e0: f227 293c 7319 f7bb a3bf 20bd 7b1d 4a3d
000001f0: d6b9 68bd b4a5 273c bce2 593d d75f d53c
00000200: a92c ce3d 8e62 30bd 35dc 95bd ebcd 6b3d
00000210: e5b5 adbc b646 71bd 90e2 b83d eac0 bf3c
00000220: aa90 d9bc f100 df3c 16c5 853d 80f3 ebbc
00000230: 9c03 893d 123a 1abd df68 acbc 77e2 8e3d
00000240: 49d3 ed3c e09d 0fbd 6234 653d d5ec 84bd
00000250: 2869 9f3a 9ea9 92bd 39f1 293d 77e8 973d
00000260: 0ff4 5ebd c4d1 643d 25df 443d 77b2 46bc
00000270: f38d b73d dd49 533b 0fd5 3d3d 3305 7d3d
00000280: f285 fabc 9c99 a23d 316c 883d f594 333d
00000290: de6b 1b3d 7151 d53b f808 483d 4cf4 06bc
000002a0: 8dc0 36bd b7e5 253c 1079 6fbd ccab 713d
000002b0: 2fed 0d3d 4913 a13d 86f7 573d b395 023d
000002c0: 7de9 99bc 2d2d 903d d65b 48bd 88c7 8a3b
000002d0: 32e7 c6bd 257b 9e3c 0ae9 d3bc 1781 38bd
000002e0: 9fb9 853c eacc ed3d 16b2 0abd 54ac de3c
000002f0: 7ade 063d c801 aabd df4e 003d 36a4 393d
00000300: 38b6 9a3c 3719 cbbd 767a cd3c 7a69 9d3d
00000310: ce59 a4bd d391 29bd 26d8 28bc 4448 35bd
00000320: 0ddf 143d b140 0f3d 8251 beba f08f eebb
00000330: 61e7 5ebd 8dad a7bb a588 c53c ec84 1f3d
00000340: 4606 2bbd a647 9abc c904 8fba 3ebb bebd
00000350: 0c38 5dbd da4b cdbd 571a 8b3d 7ea7 0d3d
00000360: 3e0e 88bd 4f65 d3bd e68b 833d 1ebe 433c
00000370: 7311 a73d c527 5a3d ce51 60bc af7c 9bbd
00000380: dbfa 663d 1c82 e53c af5f 853b 2619 82bb
00000390: c8fa f13c b3e8 103d 2efb 1e3c ee5c cbbd
000003a0: 0a2b 26bd 28bb 893d d8da efbc 66b4 973d
000003b0: ef69 ce3d 8dfd 14bd 658a 823d 2e03 93bc
000003c0: ff54 b0bd 3b57 3abd 87e4 51bd 6740 80bc
000003d0: 1a0e 85bd 36ec 48bd d084 863d daeb d73c
000003e0: 9bf2 323d 92f6 e93c fe87 9b3d 3047 c63d
000003f0: 7eef 54bd cee7 a63c 29bd 62bd 072c aa3d

bias f4 [32]
0.068843074 0.026118826 -0.011138438 -0.063614614 -0.0082910545 0.04368319 0.047920715 0.09075386
0.011351049 0.020862546 -0.030943349 0.0062291557 -0.05806202 -0.07032697 0.035847884 -0.00084561197
0.055564716 -0.039964255 0.043302815 -9.369962e-06 -0.038989734 0.06683212 -0.02008944 0.009287425
0.023171201 0.008047904 0.017886536 0.04133468 0.03406039 -0.014721473 0.014058378 0.0040210905
00000000: 99fd 8c3d 26f7 d53c ff7d 36bc 6148 82bd
00000010: 34d7 07bc 25ed 323d 8348 443d 29dd b93d
00000020: c0f9 393c eee7 aa3c e87c fdbc f21d cc3b
00000030: 71d2 6dbd 9607 90bd 3bd5 123d 0fac 5dba
00000040: d497 633d 8fb1 23bd 4b5e 313d ae33 1db7
00000050: b3b3 1fbd 47df 883d 9c92 a4bc 492a 183c
00000060: 88d1 bd3c 5bdb 033c c986 923c 8e4e 293d
00000070: e882 0b3d 5532 71bc 1c55 663c 5ac3 833b

weight f4 [8, 32]
0.008917463 -0.02065999 0.08533777 -0.1442726 -0.00026440466 6.5864913e-12 -0.008255634 -0.041761525
-2.108985e-09 -2.2380037e-11 0.055743292 -0.06708958 -0.00025306162 0.11876901 -0.04384637 -3.5174267e-05
0.02850503 -1.7061517e-11 8.936872e-10 -0.00024176846 -0.14135411 0.046497334 0.00016406513 0.13546881
-0.027085066 -1.2208061e-09 -0.08308657 -0.03890376 0.11426546 2.6676773e-06 -0.048977565 -0.00090128905
0.27606878 0.12904835 0.16695897 0.08049532 5.1892216e-11 0.08279033 0.25826997 -0.09795423
-0.11662026 -0.11565469 -0.17991766 0.10983234 9.172609e-10 0.1429832 0.21170458 -1.4064296e-05
0.12297045 -2.5950878e-12 -0.1422063 9.1579896e-05 0.20802797 0.23514163 0.020344121 0.15795651
0.25897443 0.05004664 0.079468206 -0.039536446 0.26212713 0.023596155 0.16033877 -0.08480794
0.13301429 0.14738391 -0.017713433 -0.089683086 -0.0020613999 -0.087709256 -0.053361364 -0.036622815
-0.10357024 -0.15165657 -0.01643246 0.15245113 -0.0394835 0.0034942655 -0.105904624 -1.1362572e-11
0.04835566 0.00071425893 -0.14881466 9.082199e-05 0.1538821 0.06968608 -0.05672412 0.062806986
0.04698315 0.07660044 0.13757643 0.16840579 0.06328472 -0.026079044 0.08791816 -0.06411429
-0.038191088 -0.10326956 -0.061057065 -1.0932039e-10 2.43083e-12 0.07875428 -0.11701292 -0.11085548
0.16185448 -0.060127266 0.06677762 -0.12937777 0.00036463968 0.05239167 0.013874831 0.00076717546
-0.11169128 6.6127446e-09 0.049892116 -8.005692e-09 -0.038523305 -0.032039747 -0.14420305 -0.15790181
-0.04712921 -0.16859905 -0.07808252 -0.048353508 0.13212603 1.3097633e-05 -0.07345316 0.017899914
-0.029284036 0.075960785 0.19352922 0.026132498 -2.121278e-10 -0.032106 0.15663944 -0.03733236
-0.14289492 -0.11708765 -0.26076934 0.18670264 1.850421e-11 -0.07874875 0.15614277 -4.472805e-08
0.21362694 -4.2686858e-07 -0.14677207 -8.39378e-06 0.21403898 -0.03736578 0.15190384 0.13194852
0.020902779 -0.042379603 0.1099481 0.21539012 -0.026041456 0.05519226 0.082882844 -0.08503068
0.047605414 -0.026241908 0.08139958 0.102778286 2.215549e-09 -0.02721786 -0.0016559741 0.019818537
-0.1496866 -0.1793511 -0.24045299 -0.019911315 1.0847905e-07 -0.02621883 0.18052422 0.0017015524
0.05280372 0.00067439524 -0.22752403 0.00048322594 -0.033458736 0.10764948 0.18197799 0.08888101
-0.025605692 -0.050801877 0.1356017 -0.0050981087 0.05787351 0.0026900845 0.015210198 -0.15717198
-0.002457137 -0.10033767 0.10304043 -0.10520907 -2.6187177e-11 0.0050806366 -0.03283513 -0.16846131
-0.0921825 -0.09678646 -0.09221334 -0.11278015 -1.094114e-10 -0.18376857 0.12564214 1.0262075e-11
-0.09596631 -5.312409e-06 0.13718373 0.001541392 -0.14196858 0.056592785 0.08356745 -0.018812325
-0.002517512 0.02017196 -0.08911301 -0.17922439 -0.08935635 6.7395165e-05 -0.07221712 0.18663886
0.15399937 0.1024732 0.11564637 -0.037377194 -0.0067843995 -0.14570652 0.15988329 0.109610766
0.010486211 -0.010286709 0.00038480945 -0.00784087 -0.052219175 0.05650219 0.16995753 1.593846e-10
-0.0018596683 -4.3724763e-11 -0.15593679 -0.00078483263 0.041177373 0.075653 0.09971736 -0.00980433
0.13318445 -0.20182247 -0.11839464 0.031913817 0.11521591 -0.015209618 -0.030317869 -0.023566812
00000000: 8d1a 123c 243f a9bc 92c5 ae3d 32bc 13be
00000010: cb9f 8ab9 d7bd e72c a442 07bc 220e 2bbd
00000020: a8ed 10b1 5ddb c4ad 1453 643d 4366 89bd
00000030: 5bad 84b9 2b3d f33d 4098 33bd 1588 13b8
00000040: 6183 e93c 1f13 96ad a5a7 7530 3a83 7db9
00000050: 22bf 10be fd73 3e3d e608 2c39 56b8 0a3e
00000060: 80e1 ddbc 4cc9 a7b0 4b29 aabd 8d59 1fbd
00000070: 0204 ea3d 5906 3336 b39c 48bd 7c44 6cba
00000080: e358 8d3e 4025 043e 4bf7 2a3e bbda a43d
00000090: 7139 642e fa8d a93d f63b 843e 3a9c c8bd
000000a0: 9ad6 eebd 5edc ecbd 563c 38be c7ef e03d
000000b0: 7f22 7c30 306a 123e 16c9 583e b1f5 6bb7
000000c0: eed7 fb3d f29c 36ac 879e 11be 950e c038
000000d0: 4905 553e f8c8 703e b7a8 a63c 5abf 213e
000000e0: 4c98 843e b5fd 4c3d 3ac0 a23d f8f0 21bd
000000f0: 8735 863e b94c c13c d92f 243e c9af adbd
00000100: e634 083e cfeb 163e c31b 91bc c4ab b7bd
00000110: 8d18 07bb e9a0 b3bd 7291 5abd ce01 16bd
00000120: a21c d4bd dc4b 1bbe 5e9d 86bc 261c 1c3e
00000130: 73b9 21bd 0c00 653b 86e4 d8bd 7ae4 47ad
00000140: 9610 463d 1b3d 3b3a df62 18be af77 be38
00000150: 4593 1d3e 93b7 8e3d 8d57 68bd f3a0 803d
00000160: 6771 403d b1e0 9c3d d6e0 0c3e 9172 2c3e
00000170: 6b9b 813d b8a3 d5bc 700e b43d 5a4e 83bd
00000180: 426e 1cbd fe7e d3bd f916 7abd e965 f0ae
00000190: f10d 2b2c ed49 a13d 78a4 efbd 3308 e3bd
000001a0: 2ebd 253e 0248 76bd b4c2 883d 9b7b 04be
000001b0: 1c2d bf39 a698 563d 4253 633c 461c 493a
000001c0: 66be e4bd 5136 e331 ad5b 4c3d 6889 09b2
000001d0: 9dca 1dbd 1c3c 03bd f7a9 13be 03b1 21be
000001e0: 8f0a 41bd 3ba5 2cbe bae9 9fbd 540e 46bd
000001f0: 0c4c 073e e8bd 5b37 9c6e 96bd d7a2 923c
00000200: 13e5 efbc 5491 9b3d 862c 463e d213 d63c
00000210: ab3c 69af 9581 03bd 1766 203e d1e9 18bd
00000220: 0c53 12be a6cb efbd 8f83 85be fa2e 3f3e
00000230: c7c3 a22d 0647 a1bd e4e3 1f3e 031b 40b3
00000240: 05c1 5a3e 5f2c e5b4 6b4b 16be 03d3 0cb7
00000250: 092d 5b3e dc0c 19bd ae8c 1b3e 831d 073e
00000260: 4e3c ab3c 3c96 2dbd 782c e13d 3a8f 5c3e
00000270: e454 d5bc 4711 623d 7bbe a93d 9124 aebd
00000280: e5fd 423d 45f9 d6bc d3b4 a63d 6c7d d23d
00000290: 5a40 1831 fdf7 debc 450d d9ba 7c5a a23c
000002a0: 7247 19be d1a7 37be 4f39 76be 0e1d a3bc
000002b0: fdf4 e833 dfc8 d6bc 57db 383e a006 df3a
000002c0: b748 583d e6c9 303a 0ffc 68be 7d59 fd39
000002d0: 070c 09bd 5577 dc3d 7058 3a3e 3f07 b63d
000002e0: 07c3 d1bc a115 50bd 2cdb 0a3e 090e a7bb
000002f0: c60c 6d3d 214c 303b 3234 793c b1f1 20be
00000300: eb07 21bb d67d cdbd dc06 d33d da77 d7bd
00000310: 4858 e6ad 787b a63b 217e 06bd 1f81 2cbe
00000320: 2eca bcbd fb37 c6bd 59da bcbd 47f9 e6bd
00000330: 2499 f0ae d42d 3cbe 55a8 003e 4788 342d
00000340: fc89 c4bd 3f41 b2b6 e479 0c3e 8808 ca3a
00000350: 3660 11be d6cd 673d 6925 ab3d 4e1c 9abc
00000360: d8fc 24bb ab3f a53c e280 b6bd 9986 37be
00000370: 7600 b7bd 8156 8d38 92e6 93bd 421e 3f3e
00000380: 03b2 1d3e 78dd d13d 01d8 ec3d d418 19bd
00000390: ab4f debb 1734 15be 72b8 233e 9c7b e03d
000003a0: 5bce 2b3c 9689 28bc 40c0 c939 fe76 00bc
000003b0: c6e3 55bd d76e 673d 5909 2e3e c73e 2f2f
000003c0: 1dc0 f3ba b54d 40ae e5ad 1fbe 3abd 4dba
000003d0: 9ba9 283d f6ef 9a3d 9e38 cc3d 57a2 20bc
000003e0: 8161 083e 8daa 4ebe e478 f2bd 10b8 023d
000003f0: 52f6 eb3d c331 79bc 2e5d f8bc 300f c1bc

bias f4 [8]
-0.122756675 0.099155016 0.11388311 -0.00025156743 0.16107437 0.13911512 -0.03706347 0.1379515
00000000: da67 fbbd c911 cb3d 8c3b e93d cfe4 83b9
00000010: aef0 243e 3274 0e3e ddcf 17bd 2843 0d3e

weight f4 [1, 8]
-0.19268829 0.12037916 0.1962792 -0.22032069 0.14470802 0.35007447 -0.1626306 0.2912269
00000000: 1450 45be 5989 f63d 6afd 483e bf9b 61be
00000010: 572e 143e f63c b33e a388 26be b11b 953e
